…
-upgrade comet_ml`
COMET INFO: Experiment is live on comet.ml https://www.comet.ml/ttpro1995/crowd-counting-debug/52632ec152104228b2343616446d410b

cuda
Namespace(batch_size=6, datasetname='shanghaitech_rnd', decay=0.0001, epochs=301, input='/data/ShanghaiTech/part_B', load_model='', lr=0.0001, model='M4', momentum=0.9, note='M4 shanghaitech_rnd', task_id='local_M4_t2_shb_3', test=False)
cannot detect dataset_name
current dataset_name is  shanghaitech_rnd
in ListDataset dataset_name is |shanghaitech_rnd|
in ListDataset dataset_name is |shanghaitech_rnd|
len train_loader  267
M4(
  (front_cnn_1): Conv2d(3, 20, kernel_size=(3, 3), stride=(1, 1), padding=(1, 1))
  (front_cnn_2): Conv2d(20, 16, kernel_size=(3, 3), stride=(1, 1), padding=(1, 1))
  (front_cnn_3): Conv2d(16, 14, kernel_size=(3, 3), stride=(1, 1), padding=(1, 1))
  (front_cnn_4): Conv2d(14, 10, kernel_size=(3, 3), stride=(1, 1), padding=(1, 1))
  (max_pooling): MaxPool2d(kernel_size=2, stride=2, padding=0, dilation=1, ceil_mode=False)
  (c0): Conv2d(40, 60, kernel_size=(3, 3), stride=(1, 1), padding=(2, 2), dilation=(2, 2))
  (c1): Conv2d(60, 60, kernel_size=(3, 3), stride=(1, 1), padding=(2, 2), dilation=(2, 2))
  (c2): Conv2d(60, 60, kernel_size=(3, 3), stride=(1, 1), padding=(2, 2), dilation=(2, 2))
  (c3): Conv2d(60, 30, kernel_size=(3, 3), stride=(1, 1), padding=(2, 2), dilation=(2, 2))
  (c4): Conv2d(30, 15, kernel_size=(3, 3), stride=(1, 1), padding=(2, 2), dilation=(2, 2))
  (c5): Conv2d(15, 10, kernel_size=(3, 3), stride=(1, 1), padding=(2, 2), dilation=(2, 2))
  (output): Conv2d(10, 1, kernel_size=(1, 1), stride=(1, 1))
)
Namespace(batch_size=6, datasetname='shanghaitech_rnd', decay=0.0001, epochs=301, input='/data/ShanghaiTech/part_B', load_model='', lr=0.0001, model='M4', momentum=0.9, note='M4 shanghaitech_rnd', task_id='local_M4_t2_shb_3', test=False)
do not load, keep training
2020-04-23 19:25 Epoch[1] Loss: 157.76
2020-04-23 19:28 Epoch[1] Loss: 40.31
2020-04-23 19:31 Training set Results - Epoch: 1  Avg mae: 25.26 Avg mse: 68.05 Avg loss: 63.05
…
